…
2024-02-03 00:56:44,756 - INFO - Added Dense layers
2024-02-03 00:56:44,756 - INFO - Hyperparameters - Learning Rate: 0.4, Clipnorm: 0.82
2024-02-03 00:56:44,759 - INFO - Model compilation complete.
2024-02-03 00:57:14,508 - INFO - Training completed. Number of epochs trained: 5
2024-02-03 00:57:15,415 - INFO - MAPE: 4172.92041015625
2024-02-03 00:57:15,726 - INFO - Model Summary:
Model: "sequential_1"
_________________________________________________________________
 Layer (type)                Output Shape              Param #   
=================================================================
 lstm_5 (LSTM)               (None, 50, 188)           177472    
                                                                 
 dropout_6 (Dropout)         (None, 50, 188)           0         
                                                                 
 lstm_6 (LSTM)               (None, 50, 141)           186120    
                                                                 
 dropout_7 (Dropout)         (None, 50, 141)           0         
                                                                 
 lstm_7 (LSTM)               (None, 50, 94)            88736     
                                                                 
 dropout_8 (Dropout)         (None, 50, 94)            0         
                                                                 
 lstm_8 (LSTM)               (None, 50, 47)            26696     
                                                                 
 dropout_9 (Dropout)         (None, 50, 47)            0         
                                                                 
 lstm_9 (LSTM)               (None, 47)                17860     
                                                                 
 dropout_10 (Dropout)        (None, 47)                0         
                                                                 
 dense_2 (Dense)             (None, 24)                1152      
                                                                 
 dropout_11 (Dropout)        (None, 24)                0         
                                                                 
 dense_3 (Dense)             (None, 1)                 25        
                                                                 
=================================================================
Total params: 498,061
Trainable params: 498,061
Non-trainable params: 0
_________________________________________________________________
2024-02-03 00:57:15,727 - INFO - Data Skewness:
ATR%                             NaN
14ma%                            NaN
…
